online.pt (torch, 59683 bytes, 28 tensors)

conv1.weight f4 [4, 1, 2, 1]
000000 83 f1 96 bf f3 6c f1 be 99 39 6f 3a ab 9c 51 be
       -1.1792454 -0.47153434 0.0009125709 -0.2046992
000010 d5 cb 89 3f b5 14 26 3f 9f 71 cb be 1a 3c 03 3f
       1.076533 0.64875346 -0.39735124 0.5126358

conv1.bias f4 [4]
000000 b1 47 63 3e d7 6a 06 bf 57 d9 1e bf d8 01 57 3e
       0.22195317 -0.52506775 -0.62050384 0.20996797

conv2.weight f4 [8, 4, 2, 1]
000000 34 39 5e 3c 34 8f d4 b9 60 9b 43 3d 84 32 1f 3c
       0.013563443 -0.00040542486 0.0477556 0.009716634
000010 ba 6e a3 3e 53 12 fb 3e 86 49 c6 3e 47 88 8a 3e
       0.31920415 0.49037418 0.3872797 0.27057096
000020 d0 ea c7 3d 19 ce ee be 9f 67 b5 be b9 68 85 3e
       0.09761584 -0.46641615 -0.3543062 0.2605646
000030 d3 3c 8f 3e 38 57 b8 3d 30 bd d9 3e 95 4d 9e be
       0.27976093 0.09001011 0.4252715 -0.30918565
000040 a7 bf c1 3d 59 cf 84 3d 18 53 1a 3e 3e 9b 10 3e
       0.09460383 0.06484861 0.1507076 0.1412172
000050 f3 cb 5c 3e 54 44 91 be 18 1e 37 be 00 dd 20 3e
       0.21562175 -0.28372443 -0.17882574 0.15709305
000060 90 6c ac bd 1d e8 ed be df e2 7e 3e 6c c3 5f 3e
       -0.08419144 -0.4646615 0.24891232 0.21851891
000070 64 a1 ce 3e fc 71 b7 3e 00 9a c6 3e 8a 74 62 3e
       0.40357506 0.3582915 0.38789368 0.22114769
000080 49 b3 3d 3e d8 cd be bc 65 a1 10 be 35 bc 91 be
       0.18525423 -0.023291513 -0.14124067 -0.28463903
000090 f5 61 5b be dd a9 a1 3e 07 67 5b be a1 1f 98 3e
       -0.21424086 0.31574908 -0.2142602 0.2971163
0000a0 ec 9b 9b bc 50 32 a8 be 17 b1 6f 3e 23 c7 12 be
       -0.018995248 -0.32850885 0.23407398 -0.14333777
0000b0 32 1c 06 be a0 7d fa bd ab 53 c5 be 4b 07 0c be
       -0.13096693 -0.12230992 -0.38540396 -0.13674657
0000c0 d8 ce 83 3d 9b 43 3d 3c a1 c6 90 be ca ae 87 3e
       0.06435937 0.011551763 -0.28276542 0.2650054
0000d0 c3 38 65 be e7 06 d2 be 81 85 24 be fc 89 9a 3e
       -0.22384934 -0.4102089 -0.16066553 0.301834
0000e0 3f b9 97 bd cc cc 43 bc 2f 74 8d 3e 5c c3 12 3e
       -0.0740838 -0.011950683 0.27627704 0.14332336
0000f0 b5 d7 e0 bc 77 15 8b be 6e d4 fd 3d 1d 6d 49 be
       -0.027446607 -0.27164814 0.12394033 -0.1967053

conv2.bias f4 [8]
000000 68 fd c3 3d dc dc c5 bd fe 1d 2e 3e a8 09 95 3d
       0.09569818 -0.09661266 0.17003629 0.072772324
000010 8c 1e 59 3e 3c 50 ad be 90 34 f2 bd 28 d5 36 bc
       0.21203059 -0.33850276 -0.11826432 -0.011159219

conv3.weight f4 [16, 8, 2, 1]
000000 a0 27 23 bc f1 62 c1 3d d5 fd 1e 3e c9 69 df 3e
       -0.009958178 0.094427 0.15526517 0.43635395
000010 0d c4 3f 3e 5b 10 24 bd be 00 22 3d 53 a4 e6 3d
       0.18727131 -0.04005466 0.03955149 0.11261811
000020 f1 d9 19 3e 88 96 50 3d bc 3d 43 3d 17 98 31 bd
       0.15024544 0.050924808 0.047666296 -0.043357935
000030 40 40 4f be 05 90 e6 bd 12 ff 14 be d4 c9 a8 be
       -0.20239353 -0.11257938 -0.14550427 -0.32966483
000040 78 b0 80 bd cc b4 28 bc 42 c7 10 be 5d 84 3d bd
       -0.06283659 -0.010297012 -0.14138511 -0.04626881
000050 4e 78 17 be 8c a5 af 3d bf fe 35 3e d1 7e fd bd
       -0.14791986 0.085764974 0.17772959 -0.12377704
000060 fa 97 1d 3e 7c 6f 08 be 72 3b 6d be 37 84 71 be
       0.15390006 -0.13323778 -0.23167208 -0.23585592
000070 ba 79 a3 3d b1 c3 81 3e 1d 8a a6 be a5 d9 c9 3c
       0.07982202 0.25344613 -0.32527247 0.024639914
000080 af 71 be bd 9e 23 26 3f 8e 1a 87 3d 9d ff ac 3d
       -0.09299027 0.648981 0.06596862 0.08447192
000090 78 de a1 3d 24 9f 1c 3e 34 8c 1c 3d ec 32 82 3e
       0.07903761 0.15295082 0.038219646 0.25429475
0000a0 9a 87 61 bd 29 9d 0f 3e 32 1d 37 3c 2f 9e 34 3d
       -0.05506096 0.14024796 0.011176394 0.044096168
0000b0 75 2b 5d 3e ca 0b fa 3d cf 18 78 3e 44 c7 80 be
       0.21598609 0.1220928 0.24228214 -0.25152028
0000c0 2a 63 2f 3e dc 35 d3 bd 44 71 4d 3e 71 f9 c2 3c
       0.17127672 -0.10313007 0.20062739 0.023800584
0000d0 3f 69 2e be c8 aa 59 bc 54 5d 6c bd d8 96 ae bd
       -0.17032336 -0.013285346 -0.057706192 -0.08524865
0000e0 18 7f 27 be a1 d7 49 3e 9b a8 4a be 94 7a 0b be
       -0.16357076 0.19711162 -0.1979088 -0.13620979
0000f0 54 65 77 bd 91 18 2f be 41 bf 49 bd 5f a2 b0 bc
       -0.06039937 -0.17099215 -0.04925466 -0.0215618
000100 d1 97 da bd 7b fd 83 3e f5 82 2d bc c1 ed 97 3e
       -0.10673488 0.25779328 -0.010590305 0.2967358
000110 7e a0 50 3e 7e 3e 36 3e d7 21 30 3e cc 66 a2 3e
       0.20373723 0.17797276 0.17200409 0.31719053
000120 70 30 04 3d 00 9f b7 bd 43 12 8c be f2 b9 3e be
       0.032272756 -0.08965874 -0.27357683 -0.1862562
000130 c6 c7 6b 3e a3 4d 41 be ae c5 17 be 3f 29 20 be
       0.23025426 -0.18877272 -0.14821503 -0.15640734
000140 c8 66 ca 3d 29 7f 2d 3e 6d 4e 4d 3e 39 80 29 3d
       0.09882885 0.16943039 0.20049448 0.04138205
000150 fd d7 f7 3b 4b ac 56 be 6b 73 37 be c3 9f 57 be
       0.0075635896 -0.20964162 -0.17915122 -0.21057038
000160 fd 35 c2 bd 25 42 44 3e 2d c1 54 3d 62 65 e2 bc
       -0.09482954 0.19165857 0.05194204 -0.027636234
000170 ab b4 0c 3e 32 bb f3 3d bf a5 e6 bd 34 3f ff bc
       0.13740794 0.11900939 -0.11262082 -0.031158067
000180 f9 63 49 be ed ee 05 be 08 e0 0c 3e 0b 6a ed 3d
       -0.19667043 -0.13079424 0.13757336 0.11592492
000190 db fb 83 be d1 ca 35 be 3b 77 eb 3d 8f ec 09 be
       -0.25778088 -0.1775315 0.11497351 -0.13469146
0001a0 1f 24 48 3e 01 cb 6f bc 40 41 d5 bd 8e 25 10 be
       0.19545029 -0.014635802 -0.10412836 -0.14076826
0001b0 92 e4 4b 3e 34 43 6e bc e9 31 4f be a5 ae cc 3d
       0.19911411 -0.01454239 -0.20233883 0.09994248
0001c0 0e 07 ee bd f4 23 12 3f c1 ea d9 3b be 3b 98 3e
       -0.11622439 0.5708611 0.0066502993 0.2973308
0001d0 a1 ea 0f be 3b b6 2f 3b 43 53 91 bd 29 6c e4 3e
       -0.14054348 0.0026811499 -0.07095959 0.4461377
0001e0 78 54 62 bd 11 fd 29 3e 34 d0 90 bd 49 a3 6a be
       -0.055256337 0.16600443 -0.070709616 -0.22913851
0001f0 b3 b1 0f 3e 56 99 bd 3d ab a5 23 3d 8f ba cd 3d
       0.1403263 0.09257762 0.039952915 0.10045349
000200 a5 7a 75 bd 5c 33 be bc 82 98 9e 3d 4c 00 d9 3d
       -0.059931416 -0.02321785 0.07743932 0.1059576
000210 2f 99 5e 3d d3 4b 7a 3d 9e 2a 7d bc 01 48 1b bd
       0.054345306 0.061107468 -0.015452055 -0.037910465
000220 cb 57 a6 3a 6f d3 5a bd 3e 82 82 3e 1f 65 53 3e
       0.0012690959 -0.053424295 0.25489992 0.20644043
000230 39 0c af 3d 41 ee d2 bb a9 9b e0 bc c8 e1 c9 3d
       0.08547253 -0.0064370935 -0.027417975 0.098575175
000240 2e 43 3c 3e 4c 7e a7 3e f1 bf 0a 3d 6c b7 50 3e
       0.18385002 0.32713544 0.033874456 0.2038247
000250 1e 68 3a 3e b0 a8 16 3e 99 62 bf 3d 25 4e ca 3e
       0.1820378 0.14712787 0.09344978 0.39512745
000260 78 23 cb 3d c4 1b b3 3e 27 9d 7c be bb 71 ec bc
       0.099188745 0.3498212 -0.24669324 -0.028862825
000270 11 c6 3f 3e d2 af bd bc 0c 8e 85 3e 8a 02 77 be
       0.187279 -0.023155127 0.26084936 -0.24122062
000280 b8 e1 a9 3e 23 f5 bd 3d 5c 86 3d 3e 9f df f1 3d
       0.33180022 0.09275272 0.18508285 0.118102305
000290 09 14 03 3e 07 41 43 3e cf 4d cb 3a 44 3d 27 3e
       0.12800612 0.19067775 0.001551086 0.16331965
0002a0 09 ed 34 be 05 34 4d bd fa 2f 0a 3d ae 0e 0e 3e
       -0.17668547 -0.050098438 0.03373716 0.13872787
0002b0 9f ce 06 3c 56 66 97 be 94 37 0d be 34 75 9d be
       0.008227973 -0.29570264 -0.13790733 -0.3075348
0002c0 42 87 51 be 45 63 87 be 6d 7b 8d be 16 c0 8f be
       -0.20461753 -0.26442924 -0.2763323 -0.28076237
0002d0 21 33 54 3e 62 fc fa 3d da 5c 35 3e 67 cb db 3d
       0.20722629 0.122551695 0.17711201 0.10732155
0002e0 de 06 8f 3e 30 d4 fd 3b 15 8b 54 3e f5 e2 82 bd
       0.27934927 0.007746242 0.2075618 -0.06390945
0002f0 aa fe 6c 3e 7d b6 6a 3e bc e5 b1 bc b5 a7 9f be
       0.23144022 0.22921176 -0.021715991 -0.31182638
000300 e0 ab 3e 3e 44 b4 7e 3e 05 c8 38 bd b5 f8 98 3e
       0.18620253 0.24873453 -0.04511263 0.29877248
000310 ed c9 f1 bd fa bc 8a 3d bf 0c 1d 3e d3 09 aa 3e
       -0.118060924 0.06774326 0.15336893 0.3321062
000320 6f 55 7c 3e c4 b4 04 bd 11 7f 88 be f0 f0 48 bd
       0.24641965 -0.032398954 -0.26659444 -0.0490579
000330 f5 52 8c bd aa ac dd bb f7 33 b8 3d ee 08 cb bd
       -0.0685176 -0.006764968 0.089942865 -0.099138126
000340 24 ea 9b be ea ca 53 be f8 e0 0e be ec b4 44 bd
       -0.30452073 -0.20682874 -0.13953006 -0.048024103
000350 62 d1 3a be 57 60 65 bd 8c 43 14 bd 23 15 ca 3c
       -0.18243936 -0.05600008 -0.03619723 0.024668282
000360 c1 a6 c1 3d 29 0f 01 3e 34 75 a2 3c 5d 3e 22 3e
       0.09455634 0.1260344 0.019831277 0.15844102
000370 59 bb 18 be f1 7b 21 3e 41 83 af 3d 68 23 08 3a
       -0.14915217 0.15769936 0.085699566 0.0005193264
000380 92 6e fa 3d e2 6d ae bd b8 ea 5d 3d 8c 2c f1 bd
       0.12228121 -0.08517052 0.054178923 -0.11776075
000390 ae 22 4c be 3e 98 0a be fe f5 5b be fa a7 54 3d
       -0.19935104 -0.13534638 -0.21480557 0.051918007
0003a0 da f4 4b be 04 d1 47 3e 6b 2f 97 bc df 3c 81 bb
       -0.19917622 0.19513327 -0.018455228 -0.003944024
0003b0 64 fd ff 3d 69 9a 60 bc 0e dd 53 3d 65 df 0e 3e
       0.12499502 -0.013708689 0.051724486 0.13952406
0003c0 d8 a6 91 be 0e cd 2a bd 78 a5 ff 3d d9 dd 3f be
       -0.28447604 -0.04169946 0.124827325 -0.18736972
0003d0 d5 8a 8c 3e c2 ab 61 3e 44 a8 e8 3d 96 ed 1a be
       0.2744967 0.22038177 0.11360219 -0.15129694
0003e0 b3 03 84 3e f0 6e df 3c 2d 6d 19 be 00 d4 83 be
       0.25784072 0.027274579 -0.14983054 -0.2574768
0003f0 e4 b0 2a bd 0d f7 22 be ea 37 27 be ab fa ea bd
       -0.041672602 -0.15914555 -0.16329923 -0.11473592

conv3.bias f4 [16]
000000 35 2d b6 3c 09 90 8b 3e 03 33 b2 bd 50 12 29 3e
       0.022238353 0.27258328 -0.08701136 0.16510892
000010 40 5d a0 bd 09 ea ab bb 38 06 55 3e d2 0d 6d bd
       -0.07830286 -0.005246405 0.20803154 -0.05787451
000020 10 48 9e bd f5 0a 00 be 13 46 e7 3d 32 2b fb 3d
       -0.077285886 -0.1250418 0.112926625 0.12264098
000030 2b 19 6f bd d3 76 a2 3e 20 c5 87 3e 1b 95 47 bd
       -0.05837361 0.3173128 0.26517582 -0.048726182

batchnorm1.weight f4 [4]
000000 00 00 80 3f 00 00 80 3f 00 00 80 3f 00 00 80 3f
       1.0 1.0 1.0 1.0

batchnorm1.bias f4 [4]
000000 00 00 00 00 00 00 00 00 00 00 00 00 00 00 00 00
       0.0 0.0 0.0 0.0

batchnorm1.running_mean f4 [4]
000000 00 00 00 00 00 00 00 00 00 00 00 00 00 00 00 00
       0.0 0.0 0.0 0.0

batchnorm1.running_var f4 [4]
000000 00 00 80 3f 00 00 80 3f 00 00 80 3f 00 00 80 3f
       1.0 1.0 1.0 1.0

batchnorm2.weight f4 [8]
000000 00 00 80 3f 00 00 80 3f 00 00 80 3f 00 00 80 3f
       1.0 1.0 1.0 1.0
000010 00 00 80 3f 00 00 80 3f 00 00 80 3f 00 00 80 3f
       1.0 1.0 1.0 1.0

batchnorm2.bias f4 [8]
000000 00 00 00 00 00 00 00 00 00 00 00 00 00 00 00 00
       0.0 0.0 0.0 0.0
000010 00 00 00 00 00 00 00 00 00 00 00 00 00 00 00 00
       0.0 0.0 0.0 0.0

batchnorm2.running_mean f4 [8]
000000 00 00 00 00 00 00 00 00 00 00 00 00 00 00 00 00
       0.0 0.0 0.0 0.0
000010 00 00 00 00 00 00 00 00 00 00 00 00 00 00 00 00
       0.0 0.0 0.0 0.0

batchnorm2.running_var f4 [8]
000000 00 00 80 3f 00 00 80 3f 00 00 80 3f 00 00 80 3f
       1.0 1.0 1.0 1.0
000010 00 00 80 3f 00 00 80 3f 00 00 80 3f 00 00 80 3f
       1.0 1.0 1.0 1.0

batchnorm3.weight f4 [16]
000000 00 00 80 3f 00 00 80 3f 00 00 80 3f 00 00 80 3f
       1.0 1.0 1.0 1.0
000010 00 00 80 3f 00 00 80 3f 00 00 80 3f 00 00 80 3f
       1.0 1.0 1.0 1.0
000020 00 00 80 3f 00 00 80 3f 00 00 80 3f 00 00 80 3f
       1.0 1.0 1.0 1.0
000030 00 00 80 3f 00 00 80 3f 00 00 80 3f 00 00 80 3f
       1.0 1.0 1.0 1.0

batchnorm3.bias f4 [16]
000000 00 00 00 00 00 00 00 00 00 00 00 00 00 00 00 00
       0.0 0.0 0.0 0.0
000010 00 00 00 00 00 00 00 00 00 00 00 00 00 00 00 00
       0.0 0.0 0.0 0.0
000020 00 00 00 00 00 00 00 00 00 00 00 00 00 00 00 00
       0.0 0.0 0.0 0.0
000030 00 00 00 00 00 00 00 00 00 00 00 00 00 00 00 00
       0.0 0.0 0.0 0.0

batchnorm3.running_mean f4 [16]
000000 00 00 00 00 00 00 00 00 00 00 00 00 00 00 00 00
       0.0 0.0 0.0 0.0
000010 00 00 00 00 00 00 00 00 00 00 00 00 00 00 00 00
       0.0 0.0 0.0 0.0
000020 00 00 00 00 00 00 00 00 00 00 00 00 00 00 00 00
       0.0 0.0 0.0 0.0
000030 00 00 00 00 00 00 00 00 00 00 00 00 00 00 00 00
       0.0 0.0 0.0 0.0

batchnorm3.running_var f4 [16]
000000 00 00 80 3f 00 00 80 3f 00 00 80 3f 00 00 80 3f
       1.0 1.0 1.0 1.0
000010 00 00 80 3f 00 00 80 3f 00 00 80 3f 00 00 80 3f
       1.0 1.0 1.0 1.0
000020 00 00 80 3f 00 00 80 3f 00 00 80 3f 00 00 80 3f
       1.0 1.0 1.0 1.0
000030 00 00 80 3f 00 00 80 3f 00 00 80 3f 00 00 80 3f
       1.0 1.0 1.0 1.0

conv_block.weight f4 [2, 1, 3, 3]
000000 a4 1e d6 be 1d 89 03 be bb bb 59 bd cb a0 9f 3d
       -0.41820252 -0.12845273 -0.05315755 0.07794341
000010 de 60 4c bd 6f 81 4a be 90 ca 9b bd c8 40 bc 3c
       -0.049897067 -0.19775937 -0.07606995 0.022980109
000020 55 c2 7d be f8 2b 8f 3e ca a8 1b be f1 9b 0b bf
       -0.24781163 0.27963233 -0.15201107 -0.5453482
000030 f9 4c 20 bd 0b 3a 17 3d 47 2b 2f bd 2d a9 00 be
       -0.039135907 0.03692059 -0.042765882 -0.12564535
000040 f2 04 6b bc 66 69 2d be
       -0.014344441 -0.16934738

conv_block.bias f4 [2]
000000 0a 1c 8a 3e d4 2a 37 bd
       0.26974517 -0.04471858

batchnorm_b.weight f4 [2]
000000 00 00 80 3f 00 00 80 3f
       1.0 1.0

batchnorm_b.bias f4 [2]
000000 00 00 00 00 00 00 00 00
       0.0 0.0

batchnorm_b.running_mean f4 [2]
000000 00 00 00 00 00 00 00 00
       0.0 0.0

batchnorm_b.running_var f4 [2]
000000 00 00 80 3f 00 00 80 3f
       1.0 1.0

linear_in.weight f4 [512, 18]
000000 a9 bc 12 be 76 5e 27 3e 87 de fd 3d cb ac 30 3c
       -0.1432978 0.16344628 0.12395959 0.010783385
000010 d6 54 9a bd 5d bc 31 3d 69 c9 20 3e 3b f8 cf 3e
       -0.075357124 0.043392528 0.15701832 0.40619072
000020 39 9d 12 be 94 29 ed 3c 29 c1 47 3e cc 16 f9 3d
       -0.14317788 0.02895049 0.19507279 0.12162551
000030 d4 d4 64 3e 40 3d 80 bd 02 ca 36 bd 2a 96 45 3e
       0.22346812 -0.062616825 -0.044626243 0.19295564
000040 a2 57 84 3d a0 60 48 be 72 41 57 3e de 27 22 3d
       0.06462027 -0.1956811 0.21021059 0.0395888
000050 ec 35 35 3e 65 d7 7a 3a b6 c0 71 bd 81 ff d5 bd
       0.17696351 0.00095688395 -0.059021674 -0.10449124
000060 a6 3c ee bd b8 19 94 3e 6b a0 9b be 1e 28 a8 3e
       -0.116326615 0.28925872 -0.30395827 0.32843107
000070 6b cc 54 3e 3c 50 63 3e 50 40 ed ba 76 68 c5 3d
       0.20781104 0.22198576 -0.0018100832 0.09639065
000080 56 d2 85 bd 14 bd f0 bd 41 e7 cb bd 4c 68 2e 3e
       -0.06534259 -0.11754814 -0.099562176 0.17031974
000090 b5 58 a8 3c 49 f5 44 bc 6c 09 81 3e 75 df db 3d
       0.020550111 -0.012021371 0.252025 0.107359804
0000a0 00 e4 2a 3d 33 5e 10 3e 4a 26 77 bc 78 31 b6 3e
       0.041721344 0.14098434 -0.015084812 0.35584617
0000b0 67 c4 a7 3d 75 76 82 3e 33 d6 82 3d 66 6c 33 3d
       0.08191758 0.25481 0.063885115 0.04380455
0000c0 e2 19 a8 bd ee 35 86 be 07 56 94 be fd a3 00 3d
       -0.08208062 -0.2621302 -0.28971884 0.03140639
0000d0 e8 b6 a1 3c 75 3f c7 bb bb e7 09 3e a9 43 19 3e
       0.019740537 -0.0060805627 0.13467304 0.14967217
0000e0 e6 f3 5a 3e 8f 5a 8e bd 6e 81 a8 3d 68 ca 40 3d
       0.21382102 -0.069508664 0.08227812 0.04706803
0000f0 54 1d 39 3e e7 7b a6 bb 23 52 e7 bd 74 b4 22 3e
       0.18077594 -0.0050806883 -0.11294963 0.1588915
000100 7f 90 8c 3d 0a 37 7f 3d b4 6b 08 be ec 27 21 3e
       0.06863498 0.06230835 -0.13322335 0.15737885
000110 c5 45 08 be b1 e8 5f be c0 45 c6 be 94 3b f4 bd
       -0.13307865 -0.21866108 -0.3872509 -0.11925426
000120 1c e7 8b bd 76 db 78 3e b4 7b b7 3e 90 dd 3a bd
       -0.0683119 0.24302468 0.35836565 -0.045621455
000130 1c a9 81 3e 7d 07 40 3e a9 07 c0 3d 88 a9 ad 3e
       0.25324333 0.18752857 0.09376461 0.33918405
000140 36 02 ed bd 9d 6c 9a 3e f3 15 2f be b2 22 1e be
       -0.11572687 0.3016099 -0.17098217 -0.15442923
000150 4e c8 d9 3c 4b 2c a3 3d 51 00 83 bd 8c 1b 50 3d
       0.02658477 0.079674326 -0.06396545 0.05080752
000160 e4 69 3d 3e 53 bb 01 be ef 84 85 be 3b 88 fc bd
       0.18497425 -0.12669115 -0.26077983 -0.123306714
000170 1e 04 7a be 6f 4e d9 bd 59 9b 30 3d a1 4d 1e be
       -0.24415633 -0.10610663 0.0431169 -0.154593
000180 d6 0f f4 bc c4 bc ca be 17 de f9 bd 70 e3 85 bc
       -0.029792707 -0.39597142 -0.122005634 -0.016343802
000190 9b 98 16 3d 0f 87 07 3d f2 cb a3 be 95 41 5b 3d
       0.03676663 0.033087786 -0.31991535 0.05352934
0001a0 5d 79 70 3e 0d ea 02 3e 86 f8 08 3c c7 a8 90 bd
       0.23483796 0.12784596 0.008360034 -0.07063442
0001b0 c3 f4 ac 3d be a9 f7 3d c2 e7 01 bd ee ed b3 3c
       0.08445122 0.12092923 -0.031715162 0.02196404
0001c0 50 6d f5 bd fe f8 1b 3e 8b 38 90 3e 5b 1e a7 3d
       -0.1198374 0.15231702 0.2816814 0.08160087
0001d0 45 bd e7 3d e4 55 1e be 53 6a aa be 24 0b 8b 3e
       0.11315397 -0.15462452 -0.33284244 0.27156937
0001e0 71 05 2a be bf 61 ae 3e 41 28 81 3d 06 1a 5a 3e
       -0.16603638 0.3405895 0.06306506 0.2129899
0001f0 22 b5 1c 3d 7b 7e 30 be bc fd 7a 3d 0f 6d 4a 3e
       0.03825868 -0.17235748 0.061277136 0.19768165
000200 e7 e4 ac 3e 52 1c 46 3e 4d 3c a0 3e c8 1b 55 3e
       0.3376839 0.19346741 0.31296006 0.20811379
000210 bd d2 4c 3e 04 bc ad 3e 5c 0c cf bd b5 e7 67 bd
       0.20002265 0.33932507 -0.10109779 -0.056617457
000220 b9 2e d9 bd 84 dc 0d be 08 df 9f 3d 7f 32 d5 3c
       -0.10604615 -0.13853651 0.07806212 0.026025055
000230 73 1d 00 3e 2f 4c 17 3e 30 a0 11 3c 18 3b 8c bd
       0.12511234 0.14775155 0.008888289 -0.06847209
000240 1a 3c d1 3c 7b f8 5b be c8 bb bc bd 11 ca 29 be
       0.025541354 -0.21481507 -0.09215504 -0.16580988
000250 cf 4a a6 3e ae 0f de bd f6 dc 4d be 99 d7 8f 3e
       0.3247895 -0.108428344 -0.20103821 0.28094175
000260 51 59 0c bd e7 db b9 bc 81 d2 a7 bd be 77 74 be
       -0.034264866 -0.022687865 -0.08194447 -0.23873803
000270 71 9d 8e 3e 8f 2c e1 3b 46 b2 80 be 34 a8 4a 3d
       0.27854493 0.006871767 -0.25136012 0.049476817
000280 fc 59 61 bd 3e f7 72 3e 27 d4 9e 3e 4a cc 89 3d
       -0.055017456 0.23727128 0.31021234 0.06728418
000290 8e 12 e0 3d 78 8d 01 be 4e 4e 83 3e 7d 51 3a be
       0.10941039 -0.12651622 0.2564568 -0.18195148
0002a0 da a5 75 3e 41 67 13 3f d5 01 cb bd 34 ae a1 3e
       0.23989049 0.5757943 -0.09912459 0.3157822
0002b0 ad bb b1 bb 02 df d0 3c f2 a4 80 bb 34 f6 3e 3e
       -0.005423984 0.025496963 -0.003925913 0.18648607
0002c0 8c 99 59 be a4 c1 c0 bd 3b 6f 28 3c ce 6d 00 3e
       -0.2124998 -0.09411934 0.010280426 0.12541887
0002d0 60 5d ff 3d ff ed 64 3b 4b 2f 5a bc 43 19 2b be
       0.12468982 0.0034931896 -0.01331694 -0.16708855
0002e0 fa 6b b9 3e 4e 92 1f be 5d 16 5e bd 14 68 de bc
       0.36215192 -0.15583155 -0.054220546 -0.027149238
0002f0 29 8c af be 57 46 db 3d 07 7d d5 3d a4 3c d8 3d
       -0.3428662 0.10706776 0.10424238 0.10558441
000300 66 76 7d 3e f0 4b f2 3d fe 6e 21 3e 1c 95 57 bd
       0.24752197 0.1183089 0.15764996 -0.052632436
000310 b1 e2 25 3e ef f5 2c 3e a1 fe 87 be 2f a6 29 be
       0.16199757 0.16890691 -0.26561454 -0.165673
000320 16 be 53 be 8c 11 2e 3e 26 59 91 3d 11 f8 02 be
       -0.20677981 0.16998881 0.07097082 -0.12789942
000330 22 74 4c be 6f 73 a3 be f9 08 d4 3d 40 64 b4 be
       -0.19966176 -0.31924006 0.10353274 -0.35232735
000340 80 68 92 3d 43 13 1e 3e a3 74 69 3d 3e ed 0a 3e
       0.07148838 0.15437035 0.056996 0.13567063
000350 02 67 9c 3d 9e f9 81 bd 8d 41 da 3c 26 d5 a7 bd
       0.07636835 -0.06346439 0.026642585 -0.08194952
000360 c3 7c a8 ba 75 18 37 3e 2d 5d 02 be 8f b5 84 bc
       -0.0012854565 0.17880423 -0.12730856 -0.016199855
000370 48 95 36 3d 19 49 20 bd fc 4f c2 3d a7 bc 3d 3e
       0.04457596 -0.03913221 0.09487912 0.18528996
000380 f0 c2 28 3e 63 4f 5b 3c fd 08 a7 3a d4 37 24 3e
       0.16480613 0.0133856265 0.0012743768 0.16036922
000390 3d 63 69 bc c2 56 91 3e f3 7e d6 bd 37 d0 0c 3e
       -0.014244852 0.28386503 -0.104734324 0.13751303
0003a0 eb 9a 9c be 9e a9 df bd ba d2 4d 3e 09 b7 a1 3e
       -0.30586943 -0.10921024 0.20099917 0.31584957
0003b0 f7 f9 5e be 90 20 07 3d bd 40 1f bd c2 aa 21 3e
       -0.21775042 0.03299004 -0.0388801 0.15787795
0003c0 8e 47 34 3e a6 87 14 3e 08 83 e2 3d c2 97 67 3e
       0.17605421 0.14504871 0.110601485 0.22616485
0003d0 4d 5d 61 be 66 14 a3 3e df f6 2b 3e c2 92 86 3e
       -0.22008248 0.318515 0.16793393 0.26283842
0003e0 cd 75 e4 bd 30 cd 48 3d 04 9b c1 bd 5d a0 1f be
       -0.11155281 0.049023807 -0.09453395 -0.15588517
0003f0 12 81 44 3e a4 c8 95 bb a5 1d aa 3d 21 8a d5 3d
       0.19189861 -0.0045710374 0.083064355 0.104267366

linear_in.bias f4 [512]
000000 fe 24 ca 3d a0 bc 39 be 88 9f c2 bd 51 7f bf bc
       0.09870337 -0.18138361 -0.095030844 -0.023376139
000010 85 58 a5 bd f2 21 a5 bd 1e 1f 97 3c 91 d3 1d 3e
       -0.080735244 -0.08063115 0.018447455 0.15412737
000020 6a 45 cd bc 1e 7a 33 3e c4 9e ab 3d 0b 2e 65 3e
       -0.025057513 0.17527053 0.083798915 0.22380845
000030 6e 43 34 bd 2b c5 79 bd f0 c3 e5 bd 4b e3 d5 3d
       -0.04400962 -0.06097905 -0.11219013 0.10443743
000040 ff 49 a1 bc e1 ea 8e 3c 46 6a 04 be e2 9e 81 3c
       -0.019688604 0.017445983 -0.12931165 0.015822832
000050 48 dd 13 be b6 4a 17 3c 89 6c 37 3e 71 7a 13 bd
       -0.14439881 0.009234121 0.17912497 -0.03600544
000060 1d d0 3e 3c 31 2a 34 be 10 f0 bb bd 31 5f ef 3d
       0.011646298 -0.1759422 -0.09176648 0.11688078
000070 1b ca 3e 3d 87 12 8e be ae c4 b0 bd 91 be 3e be
       0.04657946 -0.2774851 -0.08631264 -0.18627383
000080 a9 8b d7 bb 18 3e 95 3e a2 e0 16 be cb 14 83 bd
       -0.006577928 0.29148936 -0.14734128 -0.0640045
000090 8e 7a 7f be 7f db 88 3d 64 4f 63 bd 99 31 74 be
       -0.24949095 0.066824906 -0.055495635 -0.23847045
0000a0 f0 5c 19 3e 7e 0c a3 3d 2b 51 09 bd 84 78 6e be
       0.14976859 0.07961367 -0.033524673 -0.2328816
0000b0 a1 17 77 be a5 67 d1 3d e6 c0 05 3e 4f 77 35 3e
       -0.24130107 0.10224847 0.13061866 0.17721294
0000c0 26 16 8c 3b 57 e7 8a be 5e 34 0d 3e fc cf 8b bd
       0.0042751012 -0.27129623 0.13789508 -0.06826779
0000d0 ab e9 58 be e4 b4 b5 bd c3 df f2 bc 72 c9 f0 3d
       -0.21182887 -0.08872393 -0.029647714 0.11757173
0000e0 8d 7b 84 bd 82 0b d6 bd 1b ba 31 3c 7c b9 55 bd
       -0.06468878 -0.10451414 0.010847594 -0.052178845
0000f0 6b aa 29 3e 38 ea de bd e4 51 1b be 50 34 16 be
       0.16568916 -0.108845174 -0.15167958 -0.14668393
000100 cd 52 a5 bd a7 be 5b be 65 6e 05 3c 37 cc 2a 3d
       -0.080724336 -0.21459447 0.008143996 0.04169866
000110 89 d7 83 bc 83 04 24 be bf 82 e7 3c 1b 2a a1 bd
       -0.016093986 -0.16017346 0.028260587 -0.07869359
000120 02 23 77 3d 5e d3 85 3d 16 6e 05 bd 3b b9 1c 3d
       0.06033612 0.06534456 -0.03257569 0.038262587
000130 fb b6 55 3e 83 c1 c8 bd 2a fc 37 be 23 57 04 bc
       0.20870583 -0.098025344 -0.17967287 -0.008077416
000140 de 1d 90 bd c5 9c 25 3e c7 c5 59 3e 26 3a 0e 3e
       -0.07036947 0.16173084 0.21266852 0.1388937
000150 04 39 df 3d c0 66 49 bc 86 71 26 3e 01 91 b3 bd
       0.10899547 -0.012292564 0.16254243 -0.08767892
000160 10 28 4e bc 06 2b 04 3e ee 89 ff 3c c4 40 e5 3c
       -0.012582794 0.12907037 0.0311937 0.027984984
000170 61 ea 12 3e 47 7b 66 be 8a 7a ad bd 73 d5 77 3c
       0.14347221 -0.22507964 -0.08470638 0.015126574
000180 2d 9a 45 bd 7c 83 8c bd 87 ed 13 3d 5c ea 35 be
       -0.048242737 -0.06861016 0.036115196 -0.17765182
000190 ba 31 a2 3c a8 2d 37 be a8 cd 63 3d 6b 96 6f 3e
       0.019799102 -0.1788851 0.05561605 0.23397224
0001a0 d6 bd 13 3e 62 00 57 bd 03 dd 16 3d 00 91 0e 3e
       0.14427885 -0.0524906 0.036831867 0.139225
0001b0 bf 5e 9b 3e fa bd 2e be 83 3d e7 3d be ba 2f be
       0.30345723 -0.17064658 0.11291029 -0.1716108
0001c0 9c 4e 48 3e 96 67 12 be 4c f1 84 3d d9 fc 05 3e
       0.19561237 -0.14297327 0.06491336 0.13084735
0001d0 53 cb ea 3d df 22 ff bd e4 02 dc 3d fa 6e cf bd
       0.11464562 -0.12457823 0.10742739 -0.10128589
0001e0 a1 4d 05 bc c3 db 91 3e 90 ba 75 be 00 6d ad 3d
       -0.008136184 0.28487977 -0.23996949 0.08468056
0001f0 9a e3 f3 3d 4f f8 56 3e 95 c8 3b 3e 49 db 4d 3c
       0.11908646 0.2099316 0.18338235 0.012564489
000200 c5 01 b9 bd d5 97 39 3d ab b9 1d 3e 86 3e 1d be
       -0.09033541 0.045310814 0.15402858 -0.15355882
000210 6a 3b 3d be 01 ac 60 3e 46 d5 19 3d 97 a7 15 bd
       -0.18479696 0.21940614 0.03755691 -0.03653678
000220 a2 5f fb bd 6a 20 69 be 55 bf af bd 90 db 93 bd
       -0.122741 -0.22766271 -0.085814156 -0.072196126
000230 87 68 d6 3d e1 21 2b bb 93 95 8a bd d8 65 0a 3e
       0.10469156 -0.0026112723 -0.0676681 0.13515413
000240 5c 92 3a 3d d7 80 8e bd 87 29 ad bd 9d 8d fd bd
       0.045549735 -0.06958168 -0.08455186 -0.12380526
000250 0a 4d 2e 3e 4e 43 b7 3d 2e 71 26 3e c0 c5 16 3e
       0.17021576 0.08948384 0.16254112 0.14723873
000260 b1 1c 89 bd fa 60 e6 3d 79 51 67 3d a7 8a 1c 3e
       -0.066949256 0.112489656 0.056474183 0.15287267
000270 f9 f2 8c be 63 c3 20 be ce 5e 06 3e 18 64 69 bd
       -0.27529123 -0.15699534 0.13122103 -0.056980222
000280 c0 e1 60 3e 3b 8a a0 3e 82 df 84 3d 46 76 4b 3e
       0.21961117 0.3135546 0.06487943 0.19869336
000290 73 3e 7c 3c e0 f7 2e be ab b0 61 3e 8d 0f ad 3d
       0.015395748 -0.17086744 0.2204005 0.08450232
0002a0 3d a7 17 bc b7 a1 51 3d fb 58 47 be 1f fc 13 be
       -0.009256181 0.051179614 -0.19467537 -0.14451645
0002b0 a5 45 18 3e 84 72 06 be 8a 3a 6e 3d a4 c6 86 3d
       0.14870317 -0.13129622 0.058161296 0.065808564
0002c0 eb 0a 05 3d f7 57 a0 3d 4c 59 9a ba 43 43 2f bb
       0.032481115 0.07829278 -0.001177588 -0.0026742972
0002d0 88 f6 5c 3e c5 1c 4a be e2 56 40 bd de 97 2f 3e
       0.21578419 -0.19737537 -0.046957858 0.17147776
0002e0 10 d6 22 be 2f 6f 1a be 9b 66 9f bd 1e f0 ff 3d
       -0.15901971 -0.15081476 -0.07783242 0.124969706
0002f0 3b 2b d7 bb 74 09 ed bd 4f 54 17 be 5a 95 c7 3d
       -0.006566433 -0.11574069 -0.14778255 0.097452834
000300 9f 69 91 3d 18 5d ad bc 3e c2 2b 3d fb 25 c8 3d
       0.07100224 -0.021162555 0.04193329 0.09772869
000310 01 8a 1c 3e 19 10 40 bd d7 dc 00 3e fa 8f 1f 3e
       0.1528702 -0.046890352 0.12584244 0.15582266
000320 78 d6 9f bb eb 42 33 be 8d 50 25 be 1e f6 ec bd
       -0.0048778616 -0.17505996 -0.16144009 -0.11570381
000330 2c 28 84 3d f3 e2 3c 3d fe e9 43 3e 64 ee 01 be
       0.06452975 0.046114873 0.1913223 -0.12688595
000340 79 19 d2 bd 00 66 cc bd 0f 2c 8f bd 43 68 2b be
       -0.10258765 -0.099803925 -0.069908254 -0.16738991
000350 db 7a 8d bd ce 9a 64 bd b3 99 65 be f4 57 0f be
       -0.069081984 -0.055811696 -0.22421913 -0.13998395
000360 da 24 33 be dc b3 10 3e ff 15 d9 bc 11 83 12 bd
       -0.17494527 0.14131111 -0.026499746 -0.035769526
000370 cf 9f 4c 3d 94 83 c9 bd 1e 80 49 3b 39 33 6b 3c
       0.049957093 -0.0983955 0.003074653 0.014355474
000380 26 32 98 3d b8 fd 5a 3d 74 ad 22 3e be 34 b9 3d
       0.0743144 0.05346462 0.1588648 0.09043263
000390 db 45 e6 3d b7 dc 70 3d 0e 09 24 be 5c 87 0b be
       0.112437926 0.05880424 -0.16019079 -0.13625854
0003a0 4b 5c b5 3e cd e2 a8 3d 6e 48 2c be 68 c6 25 3e
       0.35421976 0.08246384 -0.16824505 0.16188967
0003b0 20 5b ac 3d a6 c8 77 3d 78 06 76 3d d1 df ac bd
       0.08415818 0.060494088 0.060064763 -0.08441127
0003c0 43 18 2d 3e df 1d 2b 3e c1 51 c2 3d 23 54 94 3d
       0.16903786 0.16710614 0.094882496 0.0724261
0003d0 17 4a 35 3e 00 a4 32 be 2a 36 8c 3d f9 35 85 bc
       0.17704044 -0.17445374 0.068462685 -0.016261088
0003e0 bf ab 38 be 90 c1 02 3e 4f 6f 8e 3e bd 1c 92 3e
       -0.18034266 0.1276915 0.27819297 0.2853755
0003f0 8f ee fe bd 5a e6 b2 3a de 9a c9 3d 65 ca e8 bd
       -0.12447845 0.0013648972 0.09843992 -0.11366729

out.weight f4 [20, 128]
000000 dd 1b ed bd 30 94 3b 3e 5c 06 10 bb c5 77 33 3e
       -0.1157758 0.18318248 -0.0021976447 0.17526157
000010 d7 0f 18 be 57 43 f8 3d 2a ce 92 bd 8f 7c 18 be
       -0.14849792 0.12122219 -0.07168229 -0.14891265
000020 59 a2 8b bd 1c 63 01 3e ae ef 4b 3d 27 08 52 be
       -0.06818075 0.12635463 0.049789123 -0.20510922
000030 fe 87 d2 bd 6f 56 03 3e 16 6c 5b bd 17 ef a0 3d
       -0.10279845 0.1282594 -0.053569876 0.07858103
000040 d2 80 e5 bd fe 8b 1c be 72 f3 14 3e 9f 59 50 3e
       -0.11206211 -0.15287778 0.14545992 0.20346688
000050 65 54 35 be 87 a7 31 be 66 1a 0c 3e 41 9e 25 be
       -0.17707975 -0.17349063 0.13681945 -0.1617365
000060 fd 66 cd bd 8c 4e 31 3e 6a 80 d6 3c b0 6c 14 be
       -0.10029409 0.1731512 0.02618428 -0.14494586
000070 41 14 56 bd 28 61 40 be 43 fb ba 3d b3 a6 40 be
       -0.05226541 -0.18787062 0.091299556 -0.1881359
000080 63 de e4 bd 1b 89 5f 3e 77 e8 60 be 3b 97 30 be
       -0.111752294 0.21829645 -0.21963678 -0.1724519
000090 0c 4e 6b be de 44 e5 3d f7 50 03 3e ce 5e 0f be
       -0.22978991 0.11194776 0.12823854 -0.14001009
0000a0 4a fb cc 3d c2 e0 18 3e 10 25 ab 3d 75 05 25 be
       0.10008867 0.14929488 0.083566785 -0.16115363
0000b0 80 cc 99 bd 75 a4 61 be 62 9b ec bd 72 d9 a1 bd
       -0.075097084 -0.22035392 -0.115530744 -0.079028025
0000c0 da 67 02 3e bb f5 95 bd 71 27 c3 bd a1 6b a4 bd
       0.12734929 -0.0732226 -0.09529007 -0.08028341
0000d0 cc ea b1 bc 7a ab 7f bd 93 a9 12 3e f5 58 19 be
       -0.021718405 -0.062419392 0.143225 -0.1497534
0000e0 28 2b f9 3c 20 61 04 be 7f d5 c7 bd 75 e5 b5 bd
       0.030416086 -0.12927675 -0.09757518 -0.08881656
0000f0 df 0c 95 bd 33 20 c1 3d f5 b3 25 3e 76 ce 4b be
       -0.072778456 0.0942997 0.1618193 -0.19902977
000100 f3 03 43 3e 60 48 55 be b9 b1 56 3e b0 9a 73 bd
       0.19044475 -0.2082839 0.20966233 -0.059473693
000110 5f 6b 45 3e 7e 6d 1b 3e cc 24 f4 bd c4 9e 57 3e
       0.1927924 0.15178487 -0.11921081 0.21056658
000120 bc 8d 98 bb 09 fb 36 be 74 c0 91 bd 45 06 13 3e
       -0.004655568 -0.178692 -0.07116786 0.1435786
000130 57 da ce bd 70 96 13 be aa 6d 06 be c1 e0 34 be
       -0.10100239 -0.14412856 -0.13127771 -0.17663862
000140 3a e1 4c bd b9 18 53 3e 0b ef 17 be d3 23 14 be
       -0.05001948 0.206149 -0.14837281 -0.14466791
000150 1d 53 16 3c 49 cb e5 3d 0c ca 34 be 00 8f 22 3e
       0.009175089 0.11220414 -0.176552 0.15874863
000160 00 f5 1c be 38 e3 1f be c4 46 36 3e b3 20 a8 3d
       -0.15327835 -0.15614021 0.17800432 0.08209362
000170 42 01 1f be a3 9f b8 3d 8e 05 6b bd 69 44 88 3d
       -0.15527824 0.09014823 -0.057378344 0.06653673
000180 e6 79 39 be e2 39 3d 3e 16 ae 8b bd f0 8a 9a 3d
       -0.18112907 0.18479112 -0.06820314 0.075460315
000190 8b f4 e4 bd 7b 04 0f be aa e3 9f bd f5 e1 c4 bd
       -0.11179455 -0.13966553 -0.07807095 -0.096134104
0001a0 3c 6c 2d 3e be 56 40 bd d9 99 55 3e 0e 2c 0b 3e
       0.1693582 -0.046957724 0.2085947 0.13591024
0001b0 f7 e1 a6 3d c3 76 33 be e5 fb 3f bd 93 9f 14 3d
       0.08148568 -0.17525773 -0.046871085 0.036284994
0001c0 bb a5 0f be 1c e0 56 3e 9a 28 07 be 7f 3a c8 bd
       -0.14028065 0.20983928 -0.13199082 -0.09776782
0001d0 be 90 5c be ec a2 af ba f6 07 ff bd 60 38 08 3e
       -0.2153959 -0.0013399995 -0.1245269 0.13302755
0001e0 d5 13 a3 3c 91 ec 2a be e4 9c ce bd 76 33 f0 3d
       0.019906918 -0.16691805 -0.10088518 0.117285654
0001f0 63 4d 22 3e 69 62 81 3d bf 6b c2 3d 9d e5 06 3e
       0.15849833 0.063175984 0.09493207 0.13173528
000200 ce d7 cd 3d 47 da be 3d ea d8 89 be 1c 74 dd 3d
       0.10050927 0.09318977 -0.26923305 0.10813162
000210 73 8b d7 bd 9e b5 b2 3d 5a 84 4f bd 5b 8c 82 3d
       -0.10524645 0.08726047 -0.05066333 0.06374427
000220 28 05 2d bd 9e 86 ca 3d 8f be 57 3e de b4 f6 bc
       -0.042241246 0.098889574 0.21068786 -0.030115541
000230 8c db 41 bd e1 43 2d bd ae c5 2e be 6c 33 15 3e
       -0.047328517 -0.042301062 -0.17067596 0.14570397
000240 77 57 10 be 15 5e 48 be ab 18 9f 3d d8 c3 6c 3e
       -0.14095865 -0.1956714 0.07768377 0.23121583
000250 90 c8 83 be 66 53 81 bd 9a c8 43 3e 21 d0 53 be
       -0.25738955 -0.06314735 0.19119492 -0.20684864
000260 6f 75 fd bd 4e da 4f 3e d2 5f 1c be 26 12 14 be
       -0.12375914 0.2029812 -0.15270928 -0.14460048
000270 30 d6 d5 bd f1 30 28 be a4 88 ee 3d 3e 64 01 be
       -0.10441244 -0.1642492 0.11647156 -0.12635896
000280 fb cb 43 3d 12 06 52 3e 46 6a f9 bd b1 83 25 be
       0.047801953 0.20510128 -0.12178473 -0.16163518
000290 41 96 5e be b1 be 53 3e 38 b6 f5 3d 7b cd 84 bd
       -0.21737005 0.20678212 0.11997646 -0.06484505
0002a0 79 3f 20 3e 07 d7 21 bb 16 f5 33 3e 24 9b b3 bd
       0.15649213 -0.0024694817 0.17573962 -0.08769825
0002b0 0c 54 62 be 28 fe be bd 8e 89 d6 bc 7a 3d 00 be
       -0.22102374 -0.0932582 -0.026188638 -0.12523451
0002c0 cd 21 cb 3d 97 1f 07 be 40 a8 a5 bd b8 2e 32 be
       0.09918556 -0.13195644 -0.08088732 -0.17400634
0002d0 23 c5 07 be a6 9b 8a be 8f b5 db 3d 6d ab bc be
       -0.13258795 -0.27071875 0.10727989 -0.36849537
0002e0 8a f3 27 3e 48 47 a3 3d 4c 02 4e be ed c1 31 be
       0.16401497 0.0797258 -0.20118064 -0.17359133
0002f0 97 c5 ab bd 35 3e 5d 3d e4 3b c9 3d 5e bb 04 be
       -0.08387297 0.054014403 0.09825876 -0.129621
000300 81 32 d7 3d b4 ca 98 bd 0d be 07 3e f4 e8 1c be
       0.1050768 -0.074605376 0.13256092 -0.1532324
000310 33 93 24 3e 68 bb 10 3d bb ce 2a be 0e c3 31 3e
       0.16071777 0.035334975 -0.16680424 0.17359564
000320 44 e4 9c 3e 82 ee 2e be 2e 90 8b be be b6 9c 3d
       0.30642903 -0.17083171 -0.27258438 0.07652043
000330 3a 91 8a bd 95 b7 b3 bd 25 d0 46 be b9 5d 04 be
       -0.06765981 -0.0877525 -0.19415338 -0.12926377
000340 41 90 0f be 92 3d 13 3e d5 9b b5 bd 6f 86 29 be
       -0.14019872 0.14378956 -0.08867613 -0.16555189
000350 8f 3f d9 bd 21 a2 c6 3d 9b 63 a5 bd e3 e0 d0 3d
       -0.10607826 0.096988924 -0.08075639 0.10199144
000360 ee bf 7d be 76 0a 2a be 29 50 52 3e 46 82 13 3e
       -0.24780247 -0.16605553 0.20538391 0.14405164
000370 24 1c 07 3d c8 ba 15 3d a0 68 b8 be 88 fb 43 3e
       0.03298582 0.03655508 -0.36017323 0.1913892
000380 b7 c7 c4 3d ba de 15 3e 9d 77 0d be 25 e3 e6 3d
       0.09608405 0.14635745 -0.1381516 0.11273793
000390 73 dd 37 be 6c 62 5c be be 38 eb bd e6 b9 6a bd
       -0.1795557 -0.2152192 -0.11485432 -0.057306193
0003a0 a2 e3 49 3e 64 3e 54 be 95 b9 2d 3e 9f 00 35 3e
       0.19715741 -0.20726925 0.16965325 0.17676018
0003b0 8a cf 9e 3d 6e b0 62 be 08 4b 16 be 7a 64 9c 3d
       0.07754429 -0.22137615 -0.1467706 0.07636352
0003c0 a0 69 10 be c3 9e 2b 3e 8e 31 bc bd b4 aa 75 be
       -0.14102793 0.16759782 -0.09189139 -0.239909
0003d0 1e e0 1c be 4a 15 f9 3b 96 3e 48 be dc 58 21 3e
       -0.15319869 0.007601415 -0.19555125 0.15756553
0003e0 84 89 04 3e d5 aa c1 bc ed d8 68 bd a0 21 fa 3d
       0.12943083 -0.02364103 -0.0568475 0.12213445
0003f0 8d 75 ba 3d 20 14 23 3e 5a d9 f7 3d 29 27 47 3e
       0.09104452 0.15925646 0.121020034 0.19448532

out.bias f4 [20]
000000 28 70 a1 3d 6e 0d 94 bc 2b 58 34 3d 03 21 d6 3d
       0.0788272 -0.01807281 0.044029396 0.10455515
000010 55 72 bc 3d 10 79 86 3d 7a 2e 80 3d 72 6b 08 3d
       0.092014946 0.065660596 0.06258865 0.033305593
000020 5e ba 88 3d 2a df ab 3d 92 88 80 3d db fe a1 bd
       0.06676172 0.083921745 0.06276049 -0.07909938
000030 65 2e 24 3d b8 78 c0 3d a2 2e 05 3d ea 24 9f 3d
       0.040083308 0.09398025 0.032515176 0.07770713
000040 9f e7 6f 3d 5e 19 ec 3c 11 0a 4c bd e4 a6 cf 3c
       0.0585705 0.02882069 -0.049814288 0.025348134
